checkpoints/dis/dis_5.pth (torch, 17439 bytes, 1 tensors)

result.weight f4 [64, 1, 4, 4, 4]
-0.04141153 -0.077094406 0.08528671 0.056182683 0.031596143 -0.07936503 0.029574707 0.030899854
0.10927022 -0.04125779 -0.01351506 -0.0653491 -0.017137434 0.04495397 -0.053544663 0.0932009
0.05011609 0.05706541 0.0024875633 -0.05012164 -0.050299924 -0.04404841 -0.05304543 0.017350212
-0.039953288 -0.05786288 0.10768529 0.09511646 0.09913734 -0.016477207 -0.018268362 -0.010956592
0.104445994 -0.11598878 0.018751562 0.10097941 0.0032072149 -0.055555508 0.12292424 -0.061241195
-0.026486237 -0.060516164 0.10261474 0.12398259 -0.053121354 0.010544754 -0.10939043 0.119541146
0.07696567 0.052871197 0.029498624 -0.055982847 -0.11757727 0.005518481 0.090588555 0.021078877
0.07460969 0.015416458 0.05663606 0.07344049 -0.059971616 0.08000829 0.030222224 -0.10541443
0.088072434 -0.046073012 0.031040031 0.017698653 -0.053476013 -0.12570116 -0.09133696 0.06866785
-0.06368118 0.11969009 -0.080544196 -0.069283776 0.0031087266 -0.049987685 -0.10754056 -0.02148328
-0.02657326 0.087068655 -0.12168916 -0.09136524 -0.051735185 0.1113031 0.05714967 0.06540569
0.08494171 -0.09772492 -0.055741582 -0.11678956 0.060915973 -0.11784764 -0.057179756 0.09388359
0.034256466 -0.03291401 -0.11961711 0.030369205 0.07252359 -0.12250275 0.07511995 0.018253708
-0.11385979 0.04923259 0.052154765 0.059350837 0.11413365 -0.0055131135 0.047270406 0.12281495
-0.019141525 0.08862966 0.05046506 0.018775446 -0.11830883 -0.013603326 -0.010124793 0.09041693
-0.013227152 0.1064125 0.086129814 -0.005878816 -0.038648367 -0.025771491 -0.06507214 0.040282328
-0.016920498 -0.10767738 0.11925306 -0.107459165 -0.026963457 -0.08097086 0.109853014 -0.03307591
-0.045957983 -0.11287988 0.08705901 -0.016247734 -0.098834276 -0.012412197 0.00079137256 0.09561375
-0.07579452 -0.117282435 -0.016935756 0.093737386 -0.05517098 0.10890752 -0.10598011 -0.10519283
-0.06587389 -0.08355763 0.020034438 0.11178205 0.106766 -0.020206781 -0.035333127 0.053134337
-0.06055168 0.077263966 -0.08342687 -0.10369095 0.121832356 0.06616034 -0.059203323 0.027947642
0.08200214 -0.11411652 0.112187475 -0.04015894 0.034073133 0.12296959 0.048845366 -0.019374419
-0.06179558 -0.12550074 -0.1211115 0.06756728 0.08302751 -0.10407853 -0.08796871 0.04797976
0.1015945 0.054286223 -0.009017767 -0.10056731 0.048846707 -0.07851847 0.05928512 0.028875181
0.040206246 -0.102609046 -0.008501603 -0.0737476 0.12104188 0.025459899 0.06743756 -0.113407105
-0.107160226 0.04481447 0.024668705 -0.07351926 0.08531113 -0.011675418 0.05731313 -0.066857636
-0.114024825 0.10559825 -0.07693349 0.098159045 0.04833193 -0.029094517 0.12337214 -0.061605487
-0.03956567 -0.12349697 0.07655649 -0.046565812 -0.09939669 0.07341491 -0.10884988 -0.032190084
0.07004588 -0.104775116 -0.06620035 -0.06727045 -0.1255429 0.035679974 -0.020321475 0.11856612
-0.07842193 0.07792394 -0.009904931 0.05678388 0.06532862 -0.0016732942 0.019764261 -0.076462306
-0.0702272 -0.05939229 -0.01410866 -0.071728826 -0.106753476 -0.02964574 -0.078854844 -0.07477656
0.07007048 -0.101719104 0.0076827276 -0.0335887 0.09720744 -0.069834486 -0.073848255 -0.047607698
00000000: 239f 29bd ace3 9dbd ccaa ae3d d01f 663d
00000010: f56a 013d 228a a2bd a846 f23c b121 fd3c
00000020: 11c9 df3d eefd 28bd 456e 5dbc c0d5 85bd
00000030: ce63 8cbc a721 383d a651 5bbd 1de0 be3d
00000040: 8746 4d3d 6bbd 693d 6306 233b 594c 4dbd
00000050: 4b07 4ebd 1b6c 34bd 2a46 59bd 0822 8e3c
00000060: 0fa6 23bd a101 6dbd 1b8a dc3d 6bcc c23d
00000070: 8508 cb3d 35fb 86bc 88a7 95bc 4783 33bc
00000080: c8e7 d53d 878b edbd e09c 993c 4bce ce3d
00000090: 2330 523b 2c8e 63bd b4bf fb3d 0cd8 7abd
000000a0: aaf9 d8bc ccdf 77bd ad27 d23d 96ea fd3d
000000b0: c795 59bd e7c3 2c3c 1708 e0bd fdd1 f43d
000000c0: 2da0 9d3d 788f 583d 19a7 f13c 454e 65bd
000000d0: 5acc f0bd 60d4 b43b 7e86 b93d 9cad ac3c
000000e0: f7cc 983d 5095 7c3c 37fb 673d f867 963d
000000f0: cca4 75bd 63db a33d 9994 f73c 85e3 d7bd
00000100: 525f b43d 0eb7 3cbd aa47 fe3c c4fc 903c
00000110: aa09 5bbd ceb7 00be df0e bbbd bba1 8c3d
00000120: 476b 82bd 1420 f53d 5bf4 a4bd a7e4 8dbd
00000130: c7bb 4b3b e3bf 4cbd 3a3e dcbd b4fd afbc
00000140: 2ab0 d9bc 0d51 b23d 2b38 f9bd b31d bbbd
00000150: 46e8 53bd e1f2 e33d c615 6a3d 6bf3 853d
00000160: ebf5 ad3d 0124 c8bd 4951 64bd 5d2f efbd
00000170: 0783 793d 1a5a f1bd 5235 6abd 0a46 c03d
00000180: 8250 0c3d d7d0 06bd d1f9 f4bd d7c8 f83c
00000190: 3f87 943d b9e2 fabd 7dd8 993d cd88 953c
000001a0: 522f e9bd 1da8 493d 3ca0 553d dd19 733d
000001b0: e7be e93d 59a7 b4bb 9d9e 413d 6886 fb3d
000001c0: b0ce 9cbc 7883 b53d 73b4 4e3d f7ce 993c
000001d0: e64b f2bd 7ce0 5ebc 76e2 25bc 832c b93d
000001e0: b2b6 58bc ccee d93d d464 b03d 15a3 c0bb
000001f0: c04d 1ebd bc1e d3bc 8b44 85bd 15ff 243d
00000200: db9c 8abc f585 dcbd f33a f43d 8d13 dcbd
00000210: 78e2 dcbc 0dd4 a5bd 9efa e03d 9b7a 07bd
00000220: 703e 3cbd 912d e7bd ff4b b23d f819 85bc
00000230: a069 cabd 875c 4bbc 1d74 4f3a 24d1 c33d
00000240: 283a 9bbd c631 f0bd dbbc 8abc 63f9 bf3d
00000250: f7fa 61bd e80a df3d 1a0c d9bd 576f d7bd
00000260: e4e8 86bd 4320 abbd 431f a43c fded e43d
00000270: 22a8 da3d b188 a5bc 78b9 10bd 64a3 593d
00000280: 0a05 78bd 923c 9e3d b5db aabd ec5b d4bd
00000290: 3e83 f93d 137f 873d 2f7f 72bd 74f2 e43c
000002a0: bdf0 a73d ecb5 e9bd 8cc2 e53d b37d 24bd
000002b0: 4590 0b3d 7bd7 fb3d 1412 483d 1ab7 9ebc
000002c0: 5d1d 7dbd 4483 00be 4e09 f8bd b760 8a3d
000002d0: 540a aa3d 2027 d5bd f028 b4bd 6d86 443d
000002e0: c710 d03d 3b5b 5e3d 42bf 13bc 3cf6 cdbd
000002f0: 7c13 483d 4bce a0bd f4d4 723d a58b ec3c
00000300: 4eaf 243d b124 d2bd 4f4a 0bbc fb08 97bd
00000310: cee4 f73d 4791 d03c b41c 8a3d fc41 e8bd
00000320: d276 dbbd 618f 373d 0616 ca3c 4491 96bd
00000330: 9ab7 ae3d 414a 3fbc 2cc1 6a3d a8ec 88bd
00000340: d985 e9bd e543 d83d 4e8f 9dbd 9c07 c93d
00000350: b4f7 453d a057 eebc 88aa fc3d 0956 7cbd
00000360: 9d0f 22bd fbeb fcbd a6c9 9c3d cbbb 3ebd
00000370: 7e90 cbbd 8e5a 963d b0ec debd c0d9 03bd
00000380: 3774 8f3d 5694 d6bd 0d94 87bd 17c5 89bd
00000390: 518e 00be 2a25 123d 3979 a6bc cbd2 f23d
000003a0: ad9b a0bd 9696 9f3d 4b48 22bc 3796 683d
000003b0: 03cb 853d 7052 dbba a9e8 a13c 4598 9cbd
000003c0: 47d3 8fbd 5445 73bd 0228 67bc 90e6 92bd
000003d0: 91a1 dabd 9fdb f2bc a67e a1bd 7424 99bd
000003e0: 1d81 8f3d 1b52 d0bd 64bf fb3b 4e94 09bd
000003f0: b214 c73d 6205 8fbd c13d 97bd 4a00 43bd
