checkpoints/dis/dis_0.pth (torch, 17439 bytes, 1 tensors)

result.weight f4 [64, 1, 4, 4, 4]
0	0xbd25c8c8	-0.040474683
1	0xbd9bf6d8	-0.07615441
2	0x3db097ac	0.08622679
3	0x3d69fcec	0.05712597
4	0x3d054558	0.032536834
5	0xbda0a1a4	-0.078433305
6	0x3cf9f5a8	0.030512646
7	0x3d026b44	0.031840578
8	0x3de1b418	0.11020678
9	0xbd252848	-0.04032162
10	0xbc4e14d0	-0.012578204
11	0xbd83e966	-0.064410016
12	0xbc84aab8	-0.016194686
13	0x3d3bfbd8	0.045894474
14	0xbd577c04	-0.052608505
15	0x3dc0cd56	0.09414165
16	0x3d5111c4	0.051042333
17	0x3d6d99c0	0.058007956
18	0x3b606fc0	0.0034246296
19	0xbd497714	-0.049185827
20	0xbd4a2d00	-0.04935932
21	0xbd309458	-0.04311022
22	0xbd556e78	-0.052107304
23	0x3c95d160	0.018288314
24	0xbd1fcd30	-0.03901404
25	0xbd692ca4	-0.05692734
26	0x3dde753c	0.108622044
27	0x3dc4b926	0.09605627
28	0x3dccf48e	0.100075826
29	0xbc7eb400	-0.015545845
30	0xbc8df3c0	-0.017328143
31	0xbc241b10	-0.010016218
32	0x3dd7d53e	0.105387196
33	0xbdeba0c0	-0.1150527
34	0x3ca153a8	0.01969321
35	0x3dd0ba60	0.10191798
36	0x3b87e2c0	0.0041469038
37	0xbd5fb454	-0.054615334
38	0x3dfdad2a	0.12386544
39	0xbd770184	-0.06030418
40	0xbcd14388	-0.025544897
41	0xbd74096c	-0.059579298
42	0x3dd413ca	0.10355337
43	0x3dffd732	0.12492217
44	0xbd55bd4c	-0.05218248
45	0x3c3c2650	0.011483744
46	0xbdde1bd6	-0.10845153
47	0x3df6bf40	0.12048197
48	0x3d9f8c00	0.07790375
49	0x3d5c67a8	0.05380979
50	0x3cf95ad0	0.03043881
51	0xbd6174f4	-0.055043176
52	0xbdeee242	-0.11664249
53	0x3bd36360	0.0064510554
54	0x3dbb73be	0.091529354
55	0x3cb46080	0.022018671
56	0x3d9aba52	0.07555069
57	0x3c85fc28	0.016355589
58	0x3d6bd828	0.05757919
59	0x3d9853de	0.074378714
60	0xbd71cd00	-0.059033394
61	0x3da5c6c6	0.08094554
62	0x3cff4ca8	0.031164482
63	0xbdd5f7fe	-0.104476914
64	0x3db64fc2	0.08901931
65	0xbd38d798	-0.04512748
66	0x3d0305e8	0.031988055
67	0x3c98c5a0	0.018648922
68	0xbd572bc8	-0.052531987
69	0xbdff8170	-0.1247586
70	0xbdb91e1c	-0.09038946
71	0x3d8e92dc	0.06961605
72	0xbd807c42	-0.062737
73	0x3df71198	0.120639026
74	0xbda305a2	-0.07960059
75	0xbd8bf4d4	-0.06833807
76	0x3b84ec20	0.0040564686
77	0xbd48dd88	-0.049039394
78	0xbdda4e18	-0.106594265
79	0xbca837b8	-0.020534381
80	0xbcd1f9b0	-0.025631756
81	0x3db4414c	0.08801517
82	0xbdf748e2	-0.12074448
83	0xbdb92d52	-0.09041847
84	0xbd500610	-0.05078703
85	0x3de5e3a2	0.11225058
86	0x3d6df64c	0.058096215
87	0x3d87e56a	0.06635554
88	0x3dafe71c	0.085890025
89	0xbdc6347e	-0.09677981
90	0xbd606fa0	-0.054793954
91	0xbded3ecc	-0.11584243
92	0x3d7d66a8	0.06186548
93	0xbdef6bea	-0.11690505
94	0xbd665404	-0.056232467
95	0x3dc23744	0.09483197
96	0x3d103494	0.035206392
97	0xbd02f044	-0.031967416
98	0xbdf30862	-0.11866833
99	0x3d0045d0	0.03131658
100	0x3d9678d4	0.07347265
101	0xbdf8f13e	-0.12155388
102	0x3d9bcaf0	0.07607067
103	0x3c9d4cb8	0.019201621
104	0xbde73d7e	-0.112910256
105	0x3d4d8b1c	0.050181493
106	0x3d598334	0.05310364
107	0x3d76fc20	0.06029904
108	0x3debaf32	0.11508025
109	0xbb95b140	-0.004568249
110	0x3d458118	0.048218817
111	0x3dfd787a	0.12376495
112	0xbc9508b0	-0.01819262
113	0x3db774e2	0.089578405
114	0x3d5295a4	0.05141224
115	0x3ca192a8	0.019723251
116	0xbdf05d8e	-0.11736594
117	0xbc4f5820	-0.012655288
118	0xbc165790	-0.00917615
119	0x3dbb1e36	0.09136622
120	0xbc492770	-0.012277469
121	0x3ddbe08a	0.10736187
122	0x3db256e8	0.08707982
123	0xbba1a340	-0.004932791
124	0xbd1a6e40	-0.0377028
125	0xbccb61a8	-0.02482684
126	0xbd835200	-0.06412125
127	0x3d28e128	0.04123035
128	0xbc82e9a0	-0.015980542
129	0xbdda9890	-0.1067363
130	0x3df62882	0.12019445
131	0xbdda23b8	-0.10651344
132	0xbcd53a08	-0.026028648
133	0xbda3e8f6	-0.08003418
134	0x3de2e7da	0.110793784
135	0xbd039e38	-0.03213331
136	0xbd3865e8	-0.04501906
137	0xbde54022	-0.11193873
138	0x3db437bc	0.08799693
139	0xbc7acdc0	-0.015307844
140	0xbdc87b64	-0.0978916
141	0xbc3be230	-0.0114675015
142	0x3ae31880	0.0017326027
143	0x3dc5becc	0.09655532
144	0xbd9955ba	-0.07487054
145	0xbdee4436	-0.11634104
146	0xbc830d40	-0.015997529
147	0x3dc1e4f2	0.09467496
148	0xbd5e2104	-0.054230705
149	0x3de0f81a	0.109848216
150	0xbdd72290	-0.10504639
151	0xbdd58340	-0.104254246
152	0xbd84fc5c	-0.06493446
153	0xbda9353c	-0.08262107
154	0x3cabcf40	0.020972848
155	0x3de6dc4c	0.11272487
156	0x3ddc96ae	0.10770927
157	0xbc9de588	-0.019274488
158	0xbd0cddb8	-0.034391135
159	0x3d5d80c0	0.054077864
160	0xbd7426ac	-0.059607193
161	0x3da0296e	0.07820402
162	0xbda8edfe	-0.082485184
163	0xbdd26fb2	-0.102752104
164	0x3dfb7216	0.122776195
165	0x3d896d42	0.067102924
166	0xbd6ea59c	-0.058263406
167	0x3ceca840	0.028888822
168	0x3da9ddd0	0.082942605
169	0xbde7ca4a	-0.113178805
170	0x3de7af3c	0.1131272
171	0xbd20a3d8	-0.039218754
172	0x3d0f6c44	0.03501536
173	0x3dfdc4b6	0.12391035
174	0x3d4beb3c	0.049784884
175	0xbc96fc98	-0.018430993
176	0xbd794494	-0.060856417
177	0xbdff197a	-0.12456031
178	0xbdf61b80	-0.12016964
179	0x3d8c4e7a	0.06850906
180	0x3dabf4f4	0.083963305
181	0xbdd339bc	-0.10313746
182	0xbdb23b9a	-0.08702774
183	0x3d4862e4	0.048922434
184	0x3dd1ff2a	0.10253747
185	0x3d623944	0.055230394
186	0xbc044d70	-0.008075103
187	0xbdcc084c	-0.0996252
188	0x3d4beed8	0.049788326
189	0xbd9ee2ee	-0.07758127
190	0x3d76af20	0.060225606
191	0x3cf44100	0.02981615
192	0x3d2888d4	0.041146114
193	0xbdd038e4	-0.10167101
194	0xbbf7cb40	-0.007562071
195	0xbd951a66	-0.07280426
196	0x3df9d060	0.121979475
197	0x3cd83f88	0.026397482
198	0x3d8c0a82	0.06837942
199	0xbde6538a	-0.112464026
200	0xbdd98912	-0.10621847
201	0x3d3b6590	0.045751154
202	0x3cd1c100	0.025604725
203	0xbd94a57e	-0.07258128
204	0x3db0a478	0.0862512
205	0xbc2fd2b0	-0.010731384
206	0x3d6e9b94	0.05825384
207	0xbd86ff32	-0.065916434
208	0xbde79b2e	-0.11308895
209	0x3dda315c	0.10653946
210	0xbd9ba400	-0.0759964
211	0x3dcaf306	0.09909634
212	0x3d49d41c	0.04927455
213	0xbce6a728	-0.028155878
214	0x3dfe9734	0.124311835
215	0xbd78793c	-0.060662493
216	0xbd1e3520	-0.038624883
217	0xbdfb0280	-0.12256336
218	0x3d9eb68c	0.07749662
219	0xbd3ae258	-0.045626014
220	0xbdc9a3e4	-0.09845713
221	0x3d984694	0.07435337
222	0xbddd00f6	-0.10791199
223	0xbcfffa60	-0.031247318
224	0x3d916342	0.0709901
225	0xbdd4a90e	-0.10383807
226	0xbd85a554	-0.065256745
227	0xbd87d8a4	-0.06633118
228	0xbdff2f08	-0.124601424
229	0x3d15ff78	0.036620587
230	0xbc9ebdf0	-0.019377679
231	0x3df4be86	0.11950402
232	0xbd9ead66	-0.07747917
233	0x3da185ce	0.07886849
234	0xbc12e4a0	-0.008965641
235	0x3d6c7044	0.057724252
236	0x3d87b98c	0.06627187
237	0xba40ea00	-0.00073590875
238	0x3ca99d20	0.020704806
239	0xbd9aaa82	-0.07552053
240	0xbd8de78e	-0.06928931
241	0xbd6f6b44	-0.058451906
242	0xbc57b870	-0.013166532
243	0xbd90f9ac	-0.07078871
244	0xbdd8b8f4	-0.10582152
245	0xbceb2ad0	-0.028706938
246	0xbd9f910a	-0.07791336
247	0xbd9736f8	-0.07383531
248	0x3d917014	0.07101455
249	0xbdce644a	-0.10077722
250	0x3c0d56e0	0.00862667
251	0xbd05b904	-0.032647148
252	0x3dc900be	0.09814595
253	0xbd8d19b4	-0.06889668
254	0xbd954f9a	-0.072905734
255	0xbd3f23d4	-0.046665028
