checkpoints/dis/dis_0.pth (torch, 17439 bytes, 1 tensors)

result.weight f4 [64, 1, 4, 4, 4]
0	0x3dc785fa	0.09742351
1	0x3dce6978	0.1007871
2	0xbd511440	-0.051044703
3	0x3c11ac60	0.008891195
4	0x3db92234	0.09039727
5	0xbc2ccd10	-0.010546938
6	0xbdefc9b0	-0.11708391
7	0x3d9d323e	0.076755986
8	0x3c1548d0	0.009111598
9	0xbd186424	-0.037204877
10	0x3dd53054	0.104096085
11	0xbc451180	-0.012028098
12	0xbdbf59e6	-0.09343319
13	0x3d2fe1c8	0.04293993
14	0xbdbe00d2	-0.092775
15	0x3cb5bc70	0.02218458
16	0x3dbfd6bc	0.09367129
17	0xbd2d3768	-0.042289168
18	0x3dce0df6	0.100612566
19	0xbdf3daac	-0.11906943
20	0xbd9728da	-0.07380839
21	0x3d370ba4	0.044688836
22	0x3d6932e0	0.056933284
23	0xbd031640	-0.03200364
24	0xbdba8e40	-0.09109163
25	0xbb9b63a0	-0.004742101
26	0x3acb3700	0.0015504062
27	0x3d9c8260	0.076420546
28	0xbce9c6b0	-0.028537124
29	0x3d9f904a	0.07791193
30	0x3d892d32	0.066980734
31	0xbdf6588a	-0.12028606
32	0x3d713948	0.05889252
33	0xbbdd63a0	-0.006756261
34	0x3d0ca0c8	0.03433302
35	0x3d0c93ec	0.034320757
36	0x3ca38480	0.019960642
37	0x3cbf39d8	0.023343012
38	0x3d2d63d0	0.042331517
39	0x3dbbd6aa	0.09171803
40	0xbcbf6548	-0.023363724
41	0xbcd33410	-0.025781661
42	0xbc8a8ec0	-0.016913772
43	0x3dd6b74c	0.1048418
44	0xbd8a679c	-0.06758043
45	0x3dbfadb0	0.093593
46	0xbd16104c	-0.036636636
47	0xbda9657c	-0.0827131
48	0x3df9a016	0.12188737
49	0x3dc82d9a	0.09774323
50	0x3d5e0774	0.054206327
51	0xbdb12692	-0.08649935
52	0xbc3c4f60	-0.011493534
53	0x3de6b906	0.11265759
54	0x3d1db628	0.038503796
55	0xbd86b6e6	-0.06577854
56	0xbd97117c	-0.07376382
57	0x3cb3ff80	0.021972418
58	0x3dbcd2a6	0.092198655
59	0x3da5486c	0.08070454
60	0xbdae884c	-0.0852209
61	0xbdf9e972	-0.12202729
62	0xbd832df4	-0.06405249
63	0x3d682c98	0.056683153
64	0xbde1c9e2	-0.11024834
65	0xbdcc0f76	-0.099638864
66	0x3dfbacc8	0.12288815
67	0xbdca5f06	-0.098814055
68	0xbdda9598	-0.10673064
69	0xbdabb8a6	-0.08384828
70	0xbdbc0adc	-0.09181759
71	0x3c443ea0	0.011977822
72	0x3d271ee8	0.04080096
73	0x3d41c4d0	0.047306836
74	0x3c3dd440	0.011586249
75	0x3c762000	0.015022278
76	0x3d89a54a	0.067209795
77	0x3c805208	0.015664116
78	0xbd83ce60	-0.06435847
79	0xbc0556a0	-0.008138329
80	0x3df240cc	0.11828765
81	0x3dd006ac	0.101575226
82	0xbc24d2f0	-0.010060057
83	0x3d79ad48	0.06095627
84	0xbc4cb5b0	-0.01249449
85	0xbc9f0880	-0.019413233
86	0x3d1dcf14	0.038527563
87	0xbd9a7026	-0.07540922
88	0xbd7b6b38	-0.06138155
89	0xbda4dd38	-0.08050007
90	0x3df6e9ce	0.120563135
91	0xbdcbb4e6	-0.09946613
92	0xbda24ac6	-0.07924418
93	0x3b2aa3c0	0.0026037544
94	0xbd7e2ec8	-0.062056333
95	0xbdf3741e	-0.11887382
96	0x3d565cac	0.052334473
97	0xbddc6714	-0.10761848
98	0xbd806db6	-0.06270926
99	0x3d13ab98	0.036052316
100	0xbd330360	-0.04370439
101	0x3d9e75b4	0.07737294
102	0xbd2cfaf0	-0.0422315
103	0xb7d0c000	-2.488494e-05
104	0xbd576a00	-0.052591324
105	0x3de054fa	0.10953708
106	0xbddb7a88	-0.1071673
107	0x3d8cc62c	0.06873736
108	0x3d4c90ec	0.049942896
109	0xbd962c02	-0.073326126
110	0xbd489e60	-0.048979163
111	0xbcd54758	-0.026034996
112	0xbba1fde0	-0.0049435943
113	0xbdc20a7e	-0.094746575
114	0x3d793ab4	0.060847
115	0xb9734c00	-0.00023202598
116	0xbdec6a88	-0.11543757
117	0xbd6a5148	-0.057206422
118	0x3db5962a	0.08866532
119	0x3dd55482	0.10416509
120	0x3d1b149c	0.03786145
121	0x3d61d0f0	0.0551309
122	0x3d2fd7dc	0.04293047
123	0x3dc38e5c	0.09548637
124	0x3de1213c	0.10992667
125	0xbd30ee54	-0.043196037
126	0x3da01b80	0.07817745
127	0xbd058190	-0.032594264
128	0xbd0b2bf8	-0.03397748
129	0xbb12da80	-0.0022408068
130	0x3d6c2f60	0.057662368
131	0x3cb48160	0.022034347
132	0x3cfa65a8	0.030566052
133	0xbddbf4f6	-0.10740082
134	0xbdda7f0e	-0.10668765
135	0xbd310558	-0.043217987
136	0xbd8fe96c	-0.070269436
137	0x3db4a40e	0.088203534
138	0xbc7f2060	-0.015571684
139	0xbd9806d8	-0.0742318
140	0x3df4a226	0.1194499
141	0x3dac4a52	0.08412613
142	0xbd79e5e0	-0.06101024
143	0xbaa82980	-0.0012829751
144	0x3cef0fe0	0.029182374
145	0xbdd12652	-0.10212387
146	0xbd1f7bcc	-0.03893642
147	0x3de0bbba	0.10973306
148	0x3d97b5a2	0.074076906
149	0xbdd44326	-0.1036437
150	0xbd24efd8	-0.040267795
151	0x3dc851ee	0.09781252
152	0xbd03949c	-0.032124147
153	0x3d6d8834	0.05799122
154	0x3dade2aa	0.08490498
155	0xbcef0498	-0.029176995
156	0x3dfc1324	0.12308338
157	0xbd1d37f4	-0.03838344
158	0x3cf63a60	0.030057132
159	0xbd1ea56c	-0.038731977
160	0xbb73a700	-0.0037178397
161	0xbdb33ab8	-0.08751434
162	0xbdd06522	-0.101755396
163	0xbde1d0fe	-0.1102619
164	0x3ded1c8c	0.115777105
165	0xbd8b5a44	-0.06804326
166	0xbdcea174	-0.100893885
167	0xbdb0a59a	-0.08625336
168	0xbd02d7d8	-0.031944126
169	0x3bc750c0	0.006082624
170	0x3bb62ce0	0.0055595487
171	0x3c891a00	0.01673603
172	0xbd541bb4	-0.051784232
173	0x3d7e0edc	0.06202589
174	0xbd38d350	-0.0451234
175	0xbd37c74c	-0.0448678
176	0x3ddd81e6	0.10815792
177	0x3db338e2	0.08751084
178	0xbda70a98	-0.081563175
179	0xbdbab858	-0.09117192
180	0x3d7f69b4	0.062356666
181	0xbcb67848	-0.022274151
182	0x3d87f2a0	0.06638074
183	0x3b52d180	0.0032168329
184	0xbc8962d8	-0.016770765
185	0x3c3c7a40	0.011503756
186	0x3dc899f2	0.09794988
187	0xbdefd32e	-0.11710201
188	0xbd52ffe8	-0.051513582
189	0x3cf2e8e8	0.029652074
190	0xbd5e7ef4	-0.05432029
191	0x3dc295ca	0.09501226
192	0xbd9d64aa	-0.07685216
193	0xbc3bc9d0	-0.01146169
194	0x3d04a814	0.032386854
195	0x3b9b6220	0.004741922
196	0xbdd4b470	-0.10385978
197	0xbd59a3a8	-0.05313459
198	0x3d05c71c	0.03266059
199	0xbdf54cf4	-0.11977568
200	0xbd842c00	-0.06453705
201	0xbdd18908	-0.10231215
202	0xbc1e2cd0	-0.009654239
203	0xbd737e94	-0.059446886
204	0xbdae4488	-0.08509165
205	0xbd985c2e	-0.07439457
206	0xbd4bfd40	-0.049802065
207	0x3da6a7f6	0.08137505
208	0xbd1f8724	-0.03894724
209	0x3dd1d868	0.10246354
210	0x3d296030	0.041351497
211	0xbc419ca0	-0.0118171275
212	0xbcfd5c78	-0.030927882
213	0xbdfab300	-0.12241173
214	0xbc844ff0	-0.016151398
215	0x3d27e0fc	0.040986046
216	0x3da3a616	0.07990663
217	0xbd55e8c0	-0.05222392
218	0x3dd57680	0.10422993
219	0x3d0c6f60	0.034285903
220	0x3dc4f024	0.09616116
221	0xbd7d84f4	-0.061894372
222	0xbddbce38	-0.107326925
223	0x3dccfdc4	0.100093395
224	0x3d7c7974	0.061639264
225	0xbdce4334	-0.10071412
226	0xbbe79e40	-0.0070684254
227	0x3dcf0d5c	0.1010997
228	0xbddeb8be	-0.108750805
229	0x3dcf9514	0.10135856
230	0xbc2f7490	-0.010708943
231	0x3d2adc48	0.041713983
232	0x394e4c00	0.00019674003
233	0xbd4c9300	-0.049944878
234	0xbcebf398	-0.028802678
235	0x3dd16082	0.102234855
236	0xbb1124c0	-0.002214715
237	0x3d5067f0	0.050880373
238	0xbda0a624	-0.07844189
239	0xbd8f3322	-0.06992175
240	0x3c9e27b8	0.019306049
241	0x3d32b98c	0.043633983
242	0x3dba3500	0.0909214
243	0x3dd7408c	0.10510358
244	0xbd8a19ba	-0.06743188
245	0xbcf4ce18	-0.02988343
246	0xbdb915b8	-0.09037346
247	0xbdfe8bd6	-0.12429015
248	0x3ddbc7f0	0.107314944
249	0xbdf3df9e	-0.11907886
250	0x3dcbb378	0.0994634
251	0xbd0d33b0	-0.03447312
252	0xbba4b800	-0.0050268173
253	0x3df65f62	0.120299116
254	0x3cc6d2f8	0.02427052
255	0x3d99913c	0.074984044
