checkpoints/gen/gen_0.pth (torch, 6175 bytes, 1 tensors)

result.weight f4 [20, 1, 4, 4, 4]
000000 be 8d 80 bd e6 0a c9 bd bc 88 2d bd 7c fc 89 3d
       -0.06277035 -0.09816532 -0.04236673 0.06737611
000010 3e 1e e5 bd 4c 24 3b bd 54 36 25 bd e8 ef da bd
       -0.11187409 -0.045688912 -0.040335014 -0.1069029
000020 88 23 c0 3c a4 36 fb 3d b4 7c 17 3d 40 2e 18 3b
       0.023454443 0.12266281 0.03698416 0.0023220927
000030 e8 3d cd 3d c0 33 3c bb c4 b4 e6 bd 18 a4 95 bc
       0.10021573 -0.002871737 -0.11264947 -0.018266723
000040 48 54 e9 3c d4 b5 5a bd e4 34 52 bd a4 8c 9d bd
       0.028482571 -0.05339606 -0.05131997 -0.07692841
000050 e0 03 36 3c 2a 39 f1 bd b0 dd 0a 3d 78 64 65 3d
       0.011109322 -0.11778481 0.033902824 0.056004018
000060 56 8f f3 bd 40 04 48 bb 38 58 27 3d c8 98 98 bd
       -0.118925735 -0.0030520111 0.040855616 -0.07451016
000070 ae 5b e6 3d e6 ad ff 3d bc 1f 1c bd 7c 2e 94 3d
       0.11247955 0.1248434 -0.0381162 0.07235429
000080 46 52 81 bd 40 4f cf 3c 54 7a f3 3d f0 bb 3c 3d
       -0.063145205 0.025306344 0.118885666 0.04607767
000090 c8 0f b2 3c d0 f9 75 3c ea 0a 9a 3d c8 3b 20 3d
       0.02173604 0.015013173 0.07521613 0.03911951
0000a0 de c9 cd bd c0 a0 16 3c 1c bc 0c bd 40 88 ec 3d
       -0.10048269 0.009193599 -0.034359083 0.11549425
0000b0 d0 be 00 bd 90 f4 d9 bc 60 32 51 3d 10 06 85 3c
       -0.031431973 -0.026605874 0.051073432 0.016238242
0000c0 ae 5f e8 bd 50 9e f9 bd c8 2a bc 3d 18 5c ef 3d
       -0.113463745 -0.12188399 0.091878474 0.11687487
0000d0 78 86 55 3d 16 1e a5 3d d0 e3 4d bc 54 7e 07 bd
       0.052130193 0.08062379 -0.012566522 -0.03307946
0000e0 a6 66 9b bd 18 1a 29 bd 58 29 0d bd 7e d2 f1 3d
       -0.07587938 -0.04128465 -0.034463257 0.11807726
0000f0 68 32 6e bd d6 9f d6 bd 60 b3 da 3b c0 cc dc bc
       -0.05815354 -0.10479705 0.006674215 -0.026953101
000100 36 95 8d 3d ec 51 d3 3d ec b2 e6 bd ea 59 e0 3d
       0.06913225 0.1031836 -0.112645954 0.1095465
000110 00 5f ed ba a0 5f 61 bd e0 d9 04 3c 30 73 c1 3d
       -0.0018109977 -0.055022836 0.008108586 0.094457984
000120 00 b6 84 bc 98 86 81 3d 00 40 6e b7 54 c8 b7 3d
       -0.016200066 0.063245 -1.4200807e-05 0.089737564
000130 b0 6d f9 bd 00 12 9d 3c d8 40 ce 3d 80 fa d9 bb
       -0.12179124 0.019173622 0.10070962 -0.0066521764
000140 80 80 c1 bb 9a 44 e0 3d 88 c1 ba 3c 50 c3 17 3c
       -0.005905211 0.10950585 0.022797361 0.009262875
000150 c2 06 d6 bd 50 e3 6d 3d 06 7e d2 bd 4c 54 d2 bd
       -0.10450508 0.05807811 -0.10277943 -0.102699846
000160 ec e7 f4 bd 80 0e e7 bb c0 3e ea bc 0c 0f 7a bd
       -0.11958298 -0.007051289 -0.028594375 -0.061049506
000170 32 cc d1 3d e0 3d c2 3c d6 d0 ee bd e0 c9 27 bc
       0.10244025 0.023711145 -0.11660926 -0.010241002
000180 88 a7 54 bd 94 13 e5 bd 14 7c f6 3d 50 fe 0d 3d
       -0.051917583 -0.11185375 0.12035385 0.03466636
000190 5a 51 8d bd 7e 6d c3 3d 00 91 4f 3b d0 02 3b bc
       -0.06900282 0.09542368 0.003167212 -0.011414245
0001a0 50 30 a4 bc 36 3f c7 3d 40 ec 21 bc 46 a8 98 3d
       -0.020042568 0.097288534 -0.009882987 0.074539706
0001b0 d4 75 5f bd 6e 75 ab 3d 08 e6 a0 3c 02 65 ee bd
       -0.05455573 0.08372007 0.019640937 -0.116403595
0001c0 4c b8 77 bd 48 4c 80 3d 18 73 79 3d 3e 04 f2 bd
       -0.060478494 0.062645495 0.060900778 -0.118172154
0001d0 d8 d3 09 3d b8 90 0a 3d a8 b1 ff bd 04 c8 20 bd
       0.033649296 0.03382942 -0.12485057 -0.03925325
0001e0 66 6e d7 bd 24 c0 c2 bd 3c b9 8d 3d f6 ca bb 3d
       -0.10519104 -0.09509304 0.06920096 0.09169571
0001f0 20 bf 02 bd b4 ab d6 bd 2e 24 ff bd 80 7c aa bd
       -0.031920552 -0.104819685 -0.124580726 -0.08324528
000200 c0 31 17 3c 1a 69 d9 bd c0 95 29 3b 2c 06 38 bd
       0.00922817 -0.1061575 0.0025876611 -0.04492776
000210 3a cc b6 bd 40 98 15 3c d6 51 de 3d 7c 62 c6 3d
       -0.08925672 0.0091305375 0.10855453 0.09686753
000220 08 38 02 bd 40 9a 9c bd da f8 f5 3d 00 57 42 bd
       -0.031791717 -0.07646608 0.12010355 -0.04744625
000230 96 97 a9 bd a0 db 6e 3c 90 31 18 3c ca 05 ae 3d
       -0.08280866 0.01457873 0.00928916 0.08497198
000240 90 f7 44 3d 34 0a 13 bd 10 1b 56 bd f4 98 1d 3d
       0.048087656 -0.035898402 -0.052271903 0.038475946
000250 d0 3c e1 3c d8 3e c3 3d ac ea bb 3d d6 d4 aa 3d
       0.027494818 0.09533471 0.091756195 0.083413765
000260 fa ec 9d 3d 56 07 d5 3d d0 c7 67 bc c4 bf 22 3d
       0.07711215 0.1040179 -0.01414676 0.039733663
000270 14 25 b5 bd 08 ae 94 bd b0 c7 58 bc 98 d2 2e bd
       -0.08844963 -0.07259756 -0.013231203 -0.042681307
000280 68 89 f4 bd 08 ee fc 3c f2 91 8e 3d c0 5a 69 bb
       -0.11940271 0.03087522 0.069614306 -0.003560707
000290 76 81 93 3d dc 21 50 3d 6e 3c a7 bd c8 ed ce bc
       0.07202427 0.05081354 -0.08165823 -0.025259867
0002a0 8c 84 87 bd 2e ed c3 bd 50 0b dd 3d 38 4d c0 3d
       -0.06617078 -0.09566723 0.10793173 0.09389728
0002b0 fe 93 f0 3d 60 4e e7 bb e8 29 07 3d 88 9e 72 3d
       0.11746977 -0.0070589036 0.03299895 0.05923322
0002c0 be 4d bc bd b8 fe 87 bc dc f6 30 bd 30 c6 53 bc
       -0.09194516 -0.016600952 -0.043204173 -0.01292567
0002d0 6e be dd 3d 52 4d c9 bd 84 19 58 bd c8 ba 0a 3d
       0.10827337 -0.09829201 -0.05275871 0.033869535
0002e0 0c cd 8f bd 38 1e bb 3d a2 c6 8f bd 68 1c 9e 3c
       -0.070215315 0.09136623 -0.07020308 0.019300655
0002f0 d0 a4 4f bd 8a 8c eb 3d ec 35 2c bd a8 0b d9 bd
       -0.050694287 0.11501415 -0.04204361 -0.105979264
000300 68 24 20 3d fc 87 12 bd 40 b8 1e bb 80 7f 19 3b
       0.03909722 -0.035774216 -0.0024218708 0.0023421943
000310 d2 bd ba 3d c8 fd 88 bd b2 90 f0 3d b2 e3 c2 3d
       0.091182366 -0.0668903 0.117463484 0.09516086
000320 80 2b c7 3b b8 94 ed 3c c0 41 3a bc 6a 35 82 3d
       0.0060781837 0.029001579 -0.011368215 0.06357844
000330 78 fa 4f bd 98 46 4c bd e6 d7 b9 bd 2c 11 32 3d
       -0.050775975 -0.04987201 -0.090743825 0.043473408
000340 5c 43 f4 bd 7a ef 80 bd 9a de 9f 3d b0 d0 31 3d
       -0.1192691 -0.062956765 0.0780613 0.04341191
000350 00 c9 ea 3c 50 3a 13 3c 44 4c a2 3d 00 94 2b 3b
       0.028660297 0.008986071 0.07924703 0.0026180744
000360 78 2c d0 3c c0 07 f9 3d ac 5a 64 3d 7c fa d7 bd
       0.02541183 0.12159681 0.055750534 -0.10545823
000370 d4 d6 ff bd d6 36 ff 3d b8 f2 6e 3d 08 2c bc bc
       -0.12492147 0.12461631 0.058336943 -0.022970214
000380 f8 ba ea bd 00 fa 70 3d 58 0f e5 3c 24 e6 40 3d
       -0.11461443 0.05883217 0.027961418 0.04709448
000390 2c 2f ad 3d d0 98 c3 bc 54 74 df 3d ac a6 30 bd
       0.08456263 -0.023876578 0.1091086 -0.0431277
0003a0 b0 df 1e bc 80 6f 1f 3b f8 59 ee 3c f8 c8 61 bd
       -0.009696886 0.0024327934 0.029095635 -0.0551233
0003b0 4a 8a eb bd c6 53 8d 3d 1c 6b f7 bd 1c cb bf 3d
       -0.11500986 0.06900744 -0.12080976 0.09364912
0003c0 a6 75 fa 3d 1c 8c 72 3d 68 56 2f 3d ac 08 45 3d
       0.12229471 0.05921565 0.042807013 0.048103973
0003d0 64 93 62 bd 74 c7 07 3d ee e8 83 bd 10 6e e5 bd
       -0.055316344 0.033149198 -0.06440912 -0.112026334
0003e0 4a b9 d1 3d a0 4c f1 bd 00 a6 32 3b e0 2d 79 bc
       0.10240419 -0.11782193 0.0027259588 -0.015208691
0003f0 20 e4 30 3c 56 e2 f1 bd ee f9 d6 bd d0 06 64 3c
       0.010796577 -0.11810748 -0.10496889 0.01391764
