checkpoints/gen/gen_5.pth (torch, 6175 bytes, 1 tensors)

result.weight f4 [20, 1, 4, 4, 4]
-0.06368983 -0.0990865 -0.043291084 0.06644871 -0.11279116 -0.04660917 -0.041257937 -0.107828476
0.022535877 0.1217416 0.036060713 0.0013959773 0.09929532 -0.0037937616 -0.11357337 -0.019193495
0.027564242 -0.05431665 -0.052243397 -0.07785451 0.010192318 -0.11870401 0.03298032 0.05507832
-0.119841516 -0.0039718356 0.03993303 -0.075435214 0.11155986 0.12392147 -0.039039936 0.071427524
-0.06406229 0.024385886 0.11796171 0.045151282 0.020820705 0.0140943695 0.07429406 0.03819447
-0.101397805 0.008275087 -0.035280645 0.11456899 -0.032349125 -0.027525807 0.05015056 0.015312526
-0.11438108 -0.122804604 0.0909541 0.11594731 0.05121279 0.07970356 -0.0134893665 -0.0340051
-0.07679496 -0.042203832 -0.03538566 0.11715127 -0.059072316 -0.105718106 0.005750223 -0.027879788
0.06820966 0.102261685 -0.11356846 0.10862205 -0.0027310338 -0.0559435 0.007187524 0.093534246
-0.017122127 0.062323242 -0.0009375396 0.088812985 -0.122713685 0.01825012 0.09978556 -0.0075776894
-0.0068253 0.10858446 0.021876194 0.008339967 -0.10542414 0.057159126 -0.10369864 -0.103620544
-0.12050293 -0.007972152 -0.029515546 -0.06197246 0.10151699 0.022788849 -0.11753173 -0.011165248
-0.05283849 -0.11277251 0.119431384 0.033744194 -0.069921546 0.09450353 0.002247943 -0.012335698
-0.020964224 0.09636756 -0.010805527 0.07361676 -0.055478156 0.08279684 0.018718304 -0.11732769
-0.061395958 0.061727222 0.05998196 -0.119091496 0.032731652 0.03291293 -0.12576678 -0.040171433
-0.106108844 -0.09601133 0.068281434 0.09077445 -0.032841377 -0.10573928 -0.12550063 -0.08416674
0.008306694 -0.10707647 0.0016641504 -0.04585151 -0.09017664 0.008208186 0.10763176 0.095940605
-0.032712985 -0.077385 0.119179085 -0.04837005 -0.08372927 0.0136560295 0.008366375 0.0840451
0.047169197 -0.036817316 -0.053191245 0.037552364 0.026576761 0.094416596 0.090835884 0.082490794
0.076194055 0.103098236 -0.01506574 0.038810294 -0.08936689 -0.073514335 -0.014150517 -0.043602988
-0.120317645 0.029961238 0.06869516 -0.0044797985 0.07110879 0.04989645 -0.08257386 -0.026180912
-0.06708615 -0.09657947 0.107012495 0.092977695 0.116553456 -0.007975542 0.032082364 0.058311485
-0.09285792 -0.017515477 -0.044118587 -0.013845012 0.10735965 -0.09920378 -0.053672906 0.032951783
-0.07112771 0.09045081 -0.071116686 0.018381262 -0.051606793 0.11410089 -0.042957973 -0.10689588
0.03818797 -0.036683045 -0.003333752 0.0014285379 0.09027318 -0.06779801 0.11655247 0.09424753
0.0051688207 0.028092073 -0.01227918 0.06266453 -0.05168482 -0.050780658 -0.09165332 0.042559646
-0.1201737 -0.06386142 0.07715297 0.042501923 0.027756747 0.008082354 0.07834128 0.0017103531
0.024505656 0.12069063 0.054843277 -0.10636636 -0.1258252 0.12371047 0.05743042 -0.023878975
-0.11551693 0.057927914 0.027056327 0.046186965 0.083659954 -0.024777137 0.1082048 -0.044032346
-0.0106008435 0.0015293862 0.02819124 -0.05602922 -0.11591226 0.06810372 -0.12171258 0.09274107
0.121388614 0.05831089 0.04190126 0.047197025 -0.05621815 0.032247324 -0.06530951 -0.11292908
0.10149785 -0.11872398 0.0018221581 -0.016114075 0.009893051 -0.11900942 -0.10587151 0.0130114425
00000000: d06f 82bd dded cabd fe51 31bd 4316 883d
00000010: 0dff e6bd 42e9 3ebd 15fe 28bd 2dd5 dcbd
00000020: 299d b83c a953 f93d 66b4 133d 3af9 b63a
00000030: 585b cb3d c2a0 78bb 2899 e8bd ad3b 9dbc
00000040: 68ce e13c 237b 5ebd 2cfd 55bd 2f72 9fbd
00000050: aefd 263c 171b f3bd 5f16 073d ce99 613d
00000060: 786f f5bd 2c26 82bb d190 233d c77d 9abd
00000070: 7f79 e43d 8aca fd3d 57e8 1fbd 9848 923d
00000080: 1733 83bd e9c4 c73c e995 f13d 8df0 383d
00000090: 2f90 aa3c 12ec 663c 7c27 983d ce71 1c3d
000000a0: a7a9 cfbd 3b94 073c 7082 10bd 26a3 ea3d
000000b0: 8480 04bd cd7d e1bc ac6a 4d3d 64e1 7a3c
000000c0: a140 eabd fb80 fbbd 2546 ba3d c975 ed3d
000000d0: 81c4 513d 9f3b a33d 8102 5dbc ef48 0bbd
000000e0: ad46 9dbd eddd 2cbd 8ef0 10bd 01ed ef3d
000000f0: d0f5 71bd bc82 d8bd 5e6c bc3b 2764 e4bc
00000100: 82b1 8b3d 936e d13d 9596 e8bd 3d75 de3d
00000110: 25fb 32bb 0325 65bd 5285 eb3b e28e bf3d
00000120: b443 8cbc a846 7f3d 38c5 75ba 95e3 b53d
00000130: 5051 fbbd 4781 953c 5f5c cc3d 444e f8bb
00000140: c4a6 dfbb 8861 de3d b435 b33c 5ba4 083c
00000150: 9de8 d7bd b01f 6a3d f45f d4bd 0237 d4bd
00000160: 3dca f6bd a19d 02bc 96ca f1bc d6d6 7dbd
00000170: 24e8 cf3d aeaf ba3c 7ab4 f0bd 72ee 36bc
00000180: 2c6d 58bd 46f5 e6bd 7198 f43d 5a37 0a3d
00000190: 0733 8fbd 118b c13d 3a52 133b ab1b 4abc
000001a0: 2abd abbc 5b5c c53d aa09 31bc 62c4 963d
000001b0: 103d 63bd 6491 a93d 2157 993c 8049 f0bd
000001c0: 547a 7bbd afd5 7c3d a5af 753d 3ee6 f3bd
000001d0: a011 063d b5cf 063d 02c9 00be cd8a 24bd
000001e0: 984f d9bd 97a1 c4bd 23d7 8b3d f4e7 b93d
000001f0: ae84 06bd d68d d8bd 3d83 00be 9d5f acbd
00000200: cd18 083c e94a dbbd 9f1f da3a cbce 3bbd
00000210: 88ae b8bd a17b 063c 0a6e dc3d 827c c43d
00000220: 0dfe 05bd 077c 9ebd 2a14 f43d ac1f 46bd
00000230: 407a abbd 8abd 5f3c 1f13 093c d61f ac3d
00000240: 7d34 413d c1cd 16bd 10df 59bd 82d0 193d
00000250: 82b7 d93c 7d5d c13d 2a08 ba3d eff0 a83d
00000260: a10b 9c3d 2b25 d33d 4bd6 76bc 8bf7 1e3d
00000270: fd05 b7bd af8e 96bd 92d7 67bc 0c99 32bd
00000280: 1969 f6bd 4571 f53c 0cb0 8c3d 46cb 92bb
00000290: 7ca1 913d 3860 4c3d 7c1c a9bd 5a79 d6bc
000002a0: 7764 89bd 75cb c5bd 5e29 db3d 176b be3d
000002b0: 94b3 ee3d d9ab 02bc cc68 033d 06d8 6e3d
000002c0: 4b2c bebd 9e7c 8fbc b1b5 34bd 30d6 62bc
000002d0: 60df db3d 5a2b cbbd 1fd8 5bbd 73f8 063d
000002e0: 68ab 91bd 463e b93d a0a5 91bd 4d94 963c
000002f0: a561 53bd baad e93d b3f4 2fbd 3aec dabd
00000300: fd6a 1c3d f640 16bd 147b 5abb c73d bb3a
00000310: 25e1 b83d afd9 8abd 10b3 ee3d d904 c13d
00000320: 365f a93b 5921 e63c 9d2e 49bc 4356 803d
00000330: 76b3 53bd 61ff 4fbd bcb4 bbbd 0653 2e3d
00000340: a11d f6bd c7c9 82bd 6002 9e3d 7f16 2e3d
00000350: 1e62 e33c da6b 043c 6571 a03d ed2d e03a
00000360: 16c0 c83c a62c f73d 58a3 603d 9bd6 d9bd
00000370: 52d8 00be ea5b fd3d 293c 6b3d d79d c3bc
00000380: 2494 ecbd d245 6d3d 3ba5 dd3c 8b2e 3d3d
00000390: e955 ab3d 6cf9 cabc 7a9a dd3d 435b 34bd
000003a0: 29af 2dbc af75 c83a 51f1 e63c e57e 65bd
000003b0: 6863 edbd f779 8b3d 7244 f9bd 08ef bd3d
000003c0: 989a f83d 66d7 6e3d a8a0 2b3d ab51 413d
000003d0: 0145 66bd c515 043d fec0 85bd 5d47 e7bd
000003e0: 1bde cf3d 8f25 f3bd 7bd5 ee3a aa01 84bc
000003f0: 7716 223c 36bb f3bd 2ad3 d8bd f22d 553c
