checkpoints/gen/gen_0.pth (torch, 6175 bytes, 1 tensors)

result.weight f4 [20, 1, 4, 4, 4]
000000 2a d6 e4 bd 72 77 e1 3d c0 f5 20 bb 94 d3 3f bd
       -0.11173661 0.110091105 -0.002456054 -0.046832636
000010 b8 a5 ab 3c d4 52 3a bd 18 00 ad 3d ec 50 2c 3d
       0.020953044 -0.045489147 0.084472835 0.04206936
000020 1c 17 42 bd 80 7c d3 3b 84 62 8f 3d 78 d3 80 3d
       -0.04738532 0.0064540505 0.07001212 0.062903345
000030 b4 24 37 3d 26 83 c7 3d e0 ca 87 3c 30 9d be bc
       0.044712737 0.097418115 0.01657623 -0.023268312
000040 84 77 cc bd fc 75 9a bd 92 6f f2 bd e0 7f 1e 3d
       -0.09983733 -0.07542035 -0.118376866 0.03869617
000050 34 0a 19 3d 8e aa e0 bd 7e 1a f5 3d 42 ec fe 3d
       0.037363246 -0.10970031 0.119679436 0.12447406
000060 da 0e c0 3d 08 75 ad 3d e8 4b ca bd b4 bb 5f bd
       0.09377833 0.084695876 -0.09877759 -0.054622367
000070 2e 30 d7 3d 9c 83 bc 3d 10 e9 16 3d ee fe b0 3d
       0.105072364 0.0920479 0.03684336 0.08642374
000080 b0 a6 2a bc 26 e9 d8 3d 22 7b fc 3d e4 ba 58 3d
       -0.010415718 0.105913445 0.12328173 0.052912608
000090 f4 50 98 bd 24 aa 02 bd c0 29 6f 3c 2a be 83 bd
       -0.074373156 -0.03190054 0.014597356 -0.06432755
0000a0 88 fa 75 3d 20 ed a0 3d 6a 05 b8 bd 30 18 35 bc
       0.06005338 0.07857728 -0.08985408 -0.01105313
0000b0 90 80 ee bd 00 a0 d9 38 c8 97 89 3d 60 43 eb bc
       -0.11645615 0.00010377169 0.06718403 -0.02871865
0000c0 c8 f1 89 3d a4 18 a8 3d 40 cc a5 bb 2e 4e 81 3d
       0.06735569 0.08207825 -0.005059749 0.0631374
0000d0 d0 b8 be bc 1c 86 ca 3d b2 ae f9 bd fa 8c cc bd
       -0.023281485 0.098888606 -0.121915236 -0.09987827
0000e0 78 48 9d 3d 80 b5 a9 bb 88 69 e9 bd 78 1b 73 3d
       0.07679838 -0.005179107 -0.113970816 0.059352368
0000f0 d2 a6 c0 bd a0 ac fd bd 18 bf 07 3d 80 22 a1 3b
       -0.094068184 -0.12386441 0.033141226 0.004917443
000100 80 65 2f 3d fa 28 f4 bd aa d4 b9 bd b8 04 db bd
       0.042821407 -0.11921878 -0.090737656 -0.106942594
000110 fe 7c d5 bd 08 a4 e9 3d 54 ce 0c 3d 68 7d df bd
       -0.10424231 0.114082396 0.034376457 -0.10912591
000120 f8 4b de bc 9c eb d6 3d 5e 63 d1 bd 44 a5 ff bd
       -0.027135834 0.10494158 -0.10224031 -0.12482694
000130 20 76 8c 3b 00 ca 5a bb d4 9d 1b 3d 0c c5 34 bd
       0.0042865425 -0.0033384562 0.037992314 -0.04413323
000140 c6 ca e5 3d 26 56 e9 3d a4 33 cb bd 52 58 8d 3d
       0.112203166 0.11393385 -0.09921959 0.069016114
000150 dc a8 0f 3d 80 c5 06 bb 08 24 81 3c f4 5a 5f 3d
       0.035073146 -0.0020564497 0.015764251 0.0545301
000160 1c 9c e1 3d bc 54 ae bd a2 5b b5 bd c0 60 b3 bd
       0.110161036 -0.085122555 -0.08855368 -0.08758688
000170 c0 b9 9e 3b d8 bb 1e bd b8 1e e7 3d 94 0f d8 3d
       0.0048439205 -0.03875336 0.11285156 0.10549846
000180 72 20 c9 bd d0 8f a2 3c 90 b7 f8 3c 7a ea d3 bd
       -0.098206416 0.019843966 0.030360967 -0.10347457
000190 32 b1 b7 3d 9a 1d b4 bd 36 b2 bc 3d 90 f5 69 bc
       0.08969344 -0.087947085 0.092136785 -0.014279738
0001a0 00 d3 4a 3d c0 c7 11 3c 7c 98 dc bd 80 6e 1f 3b
       0.04951763 0.008897722 -0.107712716 0.0024327338
0001b0 60 f0 5d bd 0c 34 8d bd d8 8c ef bd b4 30 35 3d
       -0.054184318 -0.06894693 -0.11696786 0.0442359
0001c0 ce 74 ef 3d c8 fa be bd 8a 3c b6 3d 20 16 da bd
       0.116922006 -0.093251765 0.08898266 -0.10648751
0001d0 4c 94 f9 bd 3e c5 db bd 58 63 af 3c bc 19 da bd
       -0.121864885 -0.1073098 0.021409675 -0.1064944
0001e0 34 9f 83 3d c2 26 8f bd c8 11 ed bd a0 3d bb bc
       0.0642685 -0.06989814 -0.11575657 -0.022856534
0001f0 0e ae a5 3d 2e 90 f3 bd ca 95 e2 bd ea a3 94 bd
       0.08089839 -0.118927345 -0.11063726 -0.072578266
000200 c4 2e 30 3d 40 2b 9e bc 52 9a ca bd e8 20 d7 bd
       0.04301335 -0.019307733 -0.098927155 -0.10504323
000210 bc cf 10 bd f4 74 fe bd d4 2e 6a bd e4 1a a7 bd
       -0.03535436 -0.12424651 -0.057173565 -0.08159426
000220 a0 1c 99 bd 56 3a 85 3d 6e 75 fe 3d 80 94 c1 ba
       -0.07476163 0.06505267 0.12424742 -0.0014768988
000230 86 ec de 3d 30 96 81 bd 74 43 aa 3d 1a 0a e3 bd
       0.10884957 -0.06327474 0.08313647 -0.11085911
000240 ee 9f da bd 74 28 e5 3d a4 34 86 3d a4 18 86 3d
       -0.106750354 0.111893564 0.06553009 0.065476686
000250 c8 4e 96 bd 64 74 23 bd 18 48 0a 3d d0 69 5b 3d
       -0.07339245 -0.03990592 0.03376016 0.053567708
000260 70 ec dc 3c 64 17 d6 3d 28 66 6b bd 04 16 c3 3d
       0.026968211 0.1045368 -0.05747047 0.095256835
000270 60 39 ec bd 10 d8 80 3c 7e 6b a3 3d 48 fa 28 bd
       -0.11534381 0.015728027 0.07979487 -0.04125431
000280 08 4e e8 3c 14 f5 fc bd 7c 35 b0 3d b4 f8 ba 3d
       0.02835752 -0.123514324 0.08603951 0.091294676
000290 f4 68 76 bd 50 4b fc 3c 14 c8 17 3d f8 a0 fc bc
       -0.060158685 0.03079763 0.037056044 -0.030838475
0002a0 04 07 56 3d 00 79 62 bb 00 c7 46 bb f8 ae f0 bd
       0.052252784 -0.0034556985 -0.0030331016 -0.11752123
0002b0 26 00 b9 3d 90 77 09 bd 44 c9 d0 3d 42 1d d8 bd
       0.090332314 -0.03356129 0.10194638 -0.105524555
0002c0 b0 4d 3e 3c ec 1b df 3d a4 d4 44 bd 82 d4 96 bd
       0.011615202 0.108939976 -0.048054352 -0.073647514
0002d0 d8 5a 68 3d 4a ff dd 3d 96 84 b0 3d 84 f1 fb bd
       0.05672726 0.10839708 0.08619039 -0.12301925
0002e0 f8 fc 1b bd 24 c0 c6 3d 20 4e b3 bd 90 43 31 bc
       -0.038083047 0.09704617 -0.087551355 -0.010819331
0002f0 70 38 45 bd 74 97 19 bd 98 8d ee 3c 50 6e 9d 3d
       -0.048149526 -0.037497953 0.029120252 0.07687056
000300 98 c5 a5 bd 98 6f 34 3d c8 3b d4 3c 00 c8 bd b8
       -0.08094329 0.044051737 0.025907412 -9.049475e-05
000310 1e ae f4 bd 48 ac 80 bc ec 6c 4b 3d be 31 ec 3d
       -0.11947273 -0.01570715 0.049664423 0.11532925
000320 b2 a6 bc bd 40 2e 12 3d 1c b9 9e 3d 70 a4 e3 bc
       -0.09211482 0.03568864 0.077501506 -0.02778837
000330 78 7c d4 bd a4 9f 45 3d 7c 52 46 3d 70 3b c3 3d
       -0.10375303 0.04824795 0.048418507 0.09532821
000340 1c d4 6e 3d e0 d6 f9 3c ca 0f d1 3d c0 27 0b bc
       0.058307752 0.030497968 0.1020809 -0.008493364
000350 70 db 8c bd ca 18 b2 3d ac eb f1 bd 00 e3 dd bb
       -0.06877792 0.086961344 -0.11812529 -0.0067714453
000360 d2 7e b4 3d a4 fb 06 bd 80 da d3 3b 84 ed 81 bd
       0.088132516 -0.032954827 0.006465256 -0.06344131
000370 30 ff 5f bc c4 4d a4 3d 28 bb 9c 3d 1a 79 d5 bd
       -0.013671681 0.08022645 0.07652885 -0.10423489
000380 f4 ce a0 3d 02 d0 ee bd 06 28 b1 3d 86 b8 b3 bd
       0.07851973 -0.11660768 0.08650212 -0.087754294
000390 b4 b1 f6 3d 3e 99 82 bd 8a 1e c5 3d d0 86 4a 3d
       0.12045613 -0.06376885 0.096249655 0.049444973
0003a0 34 53 c9 3d 60 ae 3a bd 30 03 2d bc e0 3f 53 3c
       0.09830323 -0.045576453 -0.010559842 0.012893647
0003b0 ac 16 2d 3d 2a b7 b8 3d fe 79 e6 bd 46 50 d6 bd
       0.04225795 0.09019311 -0.11253737 -0.1046453
0003c0 0e 33 e9 bd f8 91 cb 3c c0 45 07 3c 88 34 d5 3d
       -0.11386691 0.024849877 0.008256376 0.1041041
0003d0 bc 2e 63 3d c4 f9 76 3d 60 dc 8f 3c 88 9a 2e 3d
       0.05546449 0.06029679 0.017561138 0.04262784
0003e0 30 f8 f1 3c ca d0 c2 bd 60 07 2c bc 62 05 a8 bd
       0.02953729 -0.095124796 -0.010499805 -0.08204152
0003f0 7c 72 6f bd 58 da 8f bc 5e 4b d6 3d e0 e9 d3 3b
       -0.05845879 -0.01756017 0.10463594 0.006467089
