models/dis.pth (torch, 17431 bytes, 1 tensors)

result.weight f4 [64, 1, 4, 4, 4]
-0.041657347 -0.077340476 0.085040465 0.055933893 0.031349175 -0.07960928 0.029328162 0.030653045
0.109023236 -0.041502967 -0.013760137 -0.06559634 -0.017384415 0.04470704 -0.05379074 0.09295436
0.04987193 0.05681731 0.0022413998 -0.050368745 -0.050546248 -0.044295326 -0.0532905 0.017103164
-0.040199667 -0.05811042 0.10743915 0.09486884 0.09888965 -0.016722515 -0.018515676 -0.011203445
0.1041973 -0.11623431 0.018503426 0.10073266 0.0029596542 -0.055801995 0.122676656 -0.0614852
-0.026733892 -0.060761668 0.10236821 0.12373601 -0.053368207 0.0102980435 -0.10963733 0.1192943
0.07671854 0.052624557 0.029251836 -0.056228943 -0.11782169 0.0052721146 0.09034228 0.020832656
0.07436244 0.015169918 0.05638766 0.07319289 -0.060218755 0.07976249 0.029975262 -0.10566078
0.087821886 -0.046321798 0.030789416 0.017448427 -0.05372562 -0.12595019 -0.091586724 0.06841746
-0.06393132 0.119440265 -0.08079235 -0.069533974 0.0028582653 -0.050238535 -0.10779096 -0.021733679
-0.026820468 0.086819686 -0.12193871 -0.091616035 -0.05198571 0.11105356 0.056899514 0.06515464
0.08469088 -0.097973615 -0.055991504 -0.117040016 0.060665194 -0.11809559 -0.057428837 0.09363228
0.03400496 -0.033163015 -0.11986721 0.030118681 0.072273076 -0.122753315 0.07486929 0.018003358
-0.114110336 0.048983026 0.051904324 0.059100483 0.113882884 -0.0057636946 0.047019772 0.12256481
-0.019390583 0.08837993 0.05021465 0.018525885 -0.118557416 -0.013853806 -0.010374403 0.0901665
-0.013477196 0.10616179 0.08587819 -0.006128243 -0.038899004 -0.026021386 -0.06532277 0.04003174
-0.017168783 -0.10792342 0.11900466 -0.10770906 -0.027209297 -0.08121511 0.10960451 -0.03332442
-0.046205502 -0.11312731 0.08681138 -0.01649588 -0.099083446 -0.0126611665 0.00054358115 0.09536484
-0.07603415 -0.11753101 -0.017183604 0.0934892 -0.05541974 0.10865994 -0.10622671 -0.10543942
-0.06612292 -0.083802536 0.019787949 0.111533254 0.10651665 -0.020452563 -0.03558115 0.052884962
-0.06080088 0.07701658 -0.08367628 -0.10393839 0.12158291 0.06591198 -0.05945184 0.027699698
0.08175484 -0.11436417 0.11194019 -0.040407788 0.03382449 0.122722186 0.048597027 -0.01962297
-0.062042765 -0.12574849 -0.12136025 0.06732007 0.082781 -0.10432593 -0.08821583 0.04773161
0.101346575 0.05403806 -0.009266667 -0.10081503 0.048597556 -0.07876683 0.05903651 0.028626675
0.03995841 -0.10285452 -0.008748777 -0.07399663 0.12079592 0.02521345 0.067189425 -0.11365387
-0.10740876 0.0445677 0.024422444 -0.07376607 0.08506307 -0.0119240675 0.05706577 -0.06710577
-0.11427145 0.10535052 -0.07718059 0.09791224 0.04808461 -0.029342426 0.12312446 -0.061853904
-0.039812636 -0.123744175 0.07630858 -0.046813816 -0.09964329 0.07316847 -0.10909769 -0.032438964
0.069796816 -0.105023965 -0.06644873 -0.06751734 -0.1257922 0.035432376 -0.020567989 0.118319415
-0.07867016 0.07767673 -0.010151919 0.056534976 0.065079965 -0.0019218585 0.01951666 -0.07671037
-0.07047409 -0.059639677 -0.014356893 -0.07197623 -0.107000336 -0.029893199 -0.07910272 -0.07502338
0.069821864 -0.10196699 0.007434084 -0.03383611 0.096960984 -0.070079684 -0.074095964 -0.047857024
00000000: e5a0 2abd af64 9ebd b229 ae3d f01a 653d
00000010: fe67 003d 310a a3bd 9d41 f03c 181c fb3c
00000020: 9347 df3d 04ff 29bd 3372 61bc 6057 86bd
00000030: c369 8ebc bb1e 373d ae53 5cbd db5e be3d
00000040: 8246 4c3d 45b9 683d 73e4 123b 754f 4ebd
00000050: 9509 4fbd 046f 35bd 2447 5abd ef1b 8c3c
00000060: 68a8 24bd 3105 6ebd 0f09 dc3d 984a c23d
00000070: a886 ca3d a8fd 88bc 30ae 97bc a78e 37bc
00000080: 6565 d53d 410c eebd 7f94 973c ed4c ce3d
00000090: c2f6 413b a290 64bd e63d fb3d e8d7 7bbd
000000a0: 0901 dbbc 3ae1 78bd 6da6 d13d 4e69 fd3d
000000b0: 9f98 5abd 20b9 283c 8989 e0bd 9250 f43d
000000c0: 9c1e 9d3d d98c 573d 8ca1 ef3c 5250 66bd
000000d0: 804c f1bd b4c1 ac3b 6005 b93d 3fa9 aa3c
000000e0: 564b 983d 3f8b 783c bff6 663d 27e6 953d
000000f0: f1a7 76bd 845a a33d ae8e f53c ae64 d8bd
00000100: f6db b33d edbb 3dbd 163a fc3c 01f0 8e3c
00000110: 650f 5cbd 16f9 00be d291 bbbd 741e 8c3d
00000120: 6dee 82bd 199d f43d 7676 a5bd d467 8ebd
00000130: bc51 3b3b ecc6 4dbd 82c1 dcbd d40a b2bc
00000140: 99b6 dbbc 85ce b13d 01bb f9bd 30a1 bbbd
00000150: f8ee 54bd 0d70 e33d 770f 693d cc6f 853d
00000160: 6972 ad3d 64a6 c8bd 5957 65bd adb2 efbd
00000170: 117c 783d 1adc f1bd 803a 6bbd 48c2 bf3d
00000180: c948 0b3d f1d5 07bd f17c f5bd 74bb f63c
00000190: e803 943d 1766 fbbd 1255 993d c77b 933c
000001a0: aeb2 e9bd 6da2 483d a199 543d 5913 723d
000001b0: 6e3b e93d 60dd bcbb ce97 403d 4203 fb3d
000001c0: 00d9 9ebc 8900 b53d e0ad 4d3d 99c3 973c
000001d0: 3bce f2bd 13fb 62bc 66f9 29bc 37a9 b83d
000001e0: 75cf 5cbc 5a6b d93d e8e0 af3d 6ecf c8bb
000001f0: 9054 1fbd cd2a d5bc f2c7 85bd 52f8 233d
00000200: 8ca5 8cbc f406 ddbd b7b8 f33d 9196 dcbd
00000210: 08e6 debc 1c54 a6bd 5478 e03d 307f 08bd
00000220: fb41 3dbd 4baf e7bd 2aca b13d 5e22 87bc
00000230: 43ec cabd c870 4fbc 1d7f 0e3a a44e c33d
00000240: cbb7 9bbd 19b4 f0bd a1c4 8cbc 4477 bf3d
00000250: cfff 62bd 1a89 de3d 648d d9bd 9ff0 d7bd
00000260: 746b 87bd aaa0 abbd 561a a23c 8c6b e43d
00000270: 6725 da3d 228c a7bc 8abd 11bd e79d 583d
00000280: 580a 79bd deba 9d3d 785e abbd a7dd d4bd
00000290: 7600 f93d dcfc 863d c683 73bd 7aea e23c
000002a0: 156f a73d c337 eabd e640 e53d a382 25bd
000002b0: 8c8b 0a3d c555 fb3d ad0d 473d 5ac0 a0bc
000002c0: 8e20 7ebd 36c4 00be b98b f8bd 1bdf 893d
000002d0: 1689 a93d d5a8 d5bd 80aa b4bd 3882 433d
000002e0: cb8e cf3d 0357 5d3d 38d3 17bc 1c78 cebd
000002f0: 3b0e 473d 8150 a1bd 44d0 713d 7d82 ea3c
00000300: 6eab 233d 64a5 d2bd 0857 0fbc 8c8b 97bd
00000310: da63 f73d 708c ce3c 9c9a 893d 5cc3 e8bd
00000320: 20f9 dbbd 9f8c 363d 9411 c83c aa12 97bd
00000330: 8c35 ae3d 2a5d 43bc ccbd 693d c06e 89bd
00000340: 2607 eabd 03c2 d73d db10 9ebd 3686 c83d
00000350: 5ef4 443d 875f f0bc ad28 fc3d 855a 7dbd
00000360: 9312 23bd 966d fdbd ac47 9c3d d8bf 3fbd
00000370: c811 ccbd 5ad9 953d 9c6e dfbd b8de 04bd
00000380: a2f1 8e3d ce16 d7bd 4616 88bd 8846 8abd
00000390: accf 00be 8a21 113d 337e a8bc 7351 f23d
000003a0: d21d a1bd fa14 9f3d 3c54 26bc 3891 673d
000003b0: a548 853d dfe6 fbba 67e1 9f3c 541a 9dbd
000003c0: b854 90bd bc48 74bd 2c39 6bbc 4668 93bd
000003d0: fe22 dbbd 95e2 f4bc 9b00 a2bd dca5 99bd
000003e0: c4fe 8e3d 12d4 d0bd 9e99 f33b bc97 0abd
000003f0: 7b93 c63d f085 8fbd a0bf 97bd ba05 44bd
