models/gen.pth (torch, 6167 bytes, 1 tensors)

result.weight f4 [20, 1, 4, 4, 4]
-0.06391762 -0.09931541 -0.04352229 0.06621533 -0.1130174 -0.046837475 -0.041488364 -0.10806061
0.022308754 0.12151267 0.0358301 0.0011634545 0.099066675 -0.0040233764 -0.11380452 -0.019426588
0.027337285 -0.05454505 -0.052473992 -0.07808696 0.009966349 -0.11893148 0.03275055 0.05484627
-0.12006682 -0.004199652 0.03970302 -0.07566687 0.11133198 0.123692065 -0.039270725 0.07119454
-0.06428831 0.024157647 0.11773094 0.04491873 0.020595882 0.01386735 0.07406455 0.037962977
-0.10162247 0.00804818 -0.035509862 0.114337265 -0.032575462 -0.027753865 0.049920253 0.015080314
-0.11460755 -0.123033136 0.09072287 0.11571391 0.050986603 0.07947546 -0.013719439 -0.034237206
-0.07702014 -0.042431306 -0.03561556 0.11691898 -0.059299823 -0.10594709 0.005519109 -0.028112808
0.06797959 0.102032155 -0.113798454 0.108390644 -0.0029594684 -0.05617227 0.0069583775 0.09330326
-0.017351815 0.062093798 -0.001168141 0.08858139 -0.12294398 0.018019259 0.09955423 -0.0078101237
-0.007053627 0.10835538 0.021647196 0.0081096925 -0.10565182 0.056931656 -0.1039264 -0.10384946
-0.120731175 -0.00820095 -0.029744646 -0.06220295 0.1012864 0.022558853 -0.11776196 -0.011396817
-0.053067315 -0.1129998 0.11920161 0.033514507 -0.07014889 0.09427534 0.002020297 -0.012564935
-0.021193583 0.09613885 -0.011035416 0.07338642 -0.055708308 0.08256623 0.01848796 -0.11755911
-0.061622478 0.061500292 0.059754673 -0.11931928 0.03250514 0.032687344 -0.1259923 -0.040398337
-0.10633559 -0.09623837 0.068053626 0.090545356 -0.033070486 -0.105967484 -0.12572913 -0.08439635
0.008077652 -0.107303925 0.0014336745 -0.04608234 -0.09040448 0.007978696 0.10740199 0.095707916
-0.032941785 -0.077612326 0.11894803 -0.048600797 -0.08395769 0.013426185 0.008136474 0.08381228
0.046942513 -0.037044358 -0.05341861 0.037321977 0.026350467 0.09419026 0.09060802 0.0822609
0.07596768 0.10287085 -0.015292768 0.0385801 -0.08959285 -0.07373998 -0.014377909 -0.043832194
-0.12054167 0.029737834 0.06846828 -0.004706951 0.07088457 0.049671087 -0.08279828 -0.026409315
-0.06731042 -0.09680163 0.106785536 0.09275028 0.116328426 -0.008200833 0.031857084 0.058082506
-0.09308033 -0.017739141 -0.044342235 -0.014072265 0.107136674 -0.099425405 -0.053896356 0.032725777
-0.07134985 0.090226665 -0.0713397 0.018154044 -0.051829126 0.113878086 -0.043181643 -0.10712131
0.03796756 -0.03690329 -0.0035561041 0.0012048682 0.09005266 -0.06801744 0.11633072 0.09402411
0.004948329 0.027871514 -0.012500756 0.062440846 -0.05190527 -0.051000834 -0.091874175 0.042335745
-0.120390736 -0.064078294 0.07693346 0.042281162 0.027540607 0.007865947 0.078123555 0.001490996
0.02428766 0.12047274 0.05462446 -0.10658582 -0.12604164 0.12349249 0.057211958 -0.02409925
-0.115732364 0.05771131 0.026839187 0.045967948 0.08344428 -0.02499123 0.107988395 -0.044249456
-0.010817194 0.0013133823 0.027974574 -0.0562471 -0.11612793 0.067887366 -0.12192847 0.092521496
0.12117061 0.058093973 0.04168354 0.046978403 -0.05643317 0.032032225 -0.06552358 -0.11314503
0.101279624 -0.118939124 0.0016057948 -0.016331611 0.009676639 -0.11922482 -0.10608733 0.012792997
00000000: 3ee7 82bd e165 cbbd 6e44 32bd e79b 873d
00000010: ab75 e7bd a7d8 3fbd b4ef 29bd e24e ddbd
00000020: d9c0 b63c a2db f83d 95c2 123d 0e7f 983a
00000030: 78e3 ca3d 87d6 83bb 5812 e9bd 8224 9fbc
00000040: 71f2 df3c a16a 5fbd f8ee 56bd 0eec 9fbd
00000050: e649 233c 5992 f3bd 7125 063d 7ba6 603d
00000060: 98e5 f5bd 3c9d 89bb a29f 223d 3bf7 9abd
00000070: 0502 e43d 4452 fd3d 57da 20bd 71ce 913d
00000080: 97a9 83bd 42e6 c53c eb1c f13d b4fc 373d
00000090: b2b8 a83c e233 633c 28af 973d 117f 1b3d
000000a0: 711f d0bd 83dc 033c ca72 11bd a829 ea3d
000000b0: d96d 05bd 135c e3bc 2e79 4c3d 6c13 773c
000000c0: 5db7 eabd ccf8 fbbd e9cc b93d 6afb ec3d
000000d0: 54d7 503d 08c4 a23d 7fc7 60bc 503c 0cbd
000000e0: bcbc 9dbd 73cc 2dbd 9fe1 11bd 3873 ef3d
000000f0: 5fe4 72bd cafa d8bd a4d9 b43b d54c e6bc
00000100: e238 8b3d 3cf6 d03d 2a0f e9bd eafb dd3d
00000110: a4f3 41bb e514 66bd 1a03 e43b c815 bf3d
00000120: 6525 8ebc 1156 7e3d 4f1c 99ba 296a b53d
00000130: 0eca fbbd 209d 933c 17e3 cb3d 11ec ffbb
00000140: 1d22 e7bb 6de9 dd3d 7655 b13c 84de 043c
00000150: fb5f d8bd 2b31 693d 5dd7 d4bd 07af d4bd
00000160: e841 f7bd 475d 06bc 0bab f3bc 85c8 7ebd
00000170: 3e6f cf3d 58cd b83c 2f2d f1bd b7b9 3abc
00000180: 1d5d 59bd 706c e7bd f91f f43d 8246 093d
00000190: 39aa 8fbd 6e13 c13d f666 043b 28dd 4dbc
000001a0: 2a9e adbc 72e4 c43d e4cd 34bc 9f4b 963d
000001b0: 652e 64bd 7c18 a93d 1074 973c d5c2 f0bd
000001c0: da67 7cbd bbe7 7b3d 51c1 743d ab5d f4bd
000001d0: 1c24 053d 2ae3 053d 2004 01be ba78 25bd
000001e0: 79c6 d9bd 9f18 c5bd b35f 8b3d d86f b93d
000001f0: eb74 07bd 7b05 d9bd 23bf 00be fed7 acbd
00000200: 2158 043c 29c2 dbbd 22ea bb3a d6c0 3cbd
00000210: fc25 b9bd 14b9 023c 93f5 db3d 8302 c43d
00000220: f7ed 06bd 36f3 9ebd 069b f33d a111 47bd
00000230: 02f2 abbd 80f9 5b3c d84e 053c c6a5 ab3d
00000240: cb46 403d d3bb 17bd 79cd 5abd eede 183d
00000250: efdc d73c d3e6 c03d b390 b93d 6778 a83d
00000260: f194 9b3d f4ad d23d 858e 7abc 2b06 1e3d
00000270: 757c b7bd fd04 97bd 5291 6bbc 6389 33bd
00000280: 8dde f6bd c29c f33c 1939 8c3d c43c 9abb
00000290: ee2b 913d e973 4b3d 2592 a9bd 5958 d8bc
000002a0: 0cda 89bd ef3f c6bd 60b2 da3d dcf3 bd3d
000002b0: 993d ee3d c95c 06bc 937c 023d ece7 6d3d
000002c0: e6a0 bebd ad51 91bc 34a0 35bd 5b8f 66bc
000002d0: 796a db3d 8c9f cbbd 6dc2 5cbd 770b 063d
000002e0: df1f 92bd c2c8 b83d 8c1a 92bd cab7 943c
000002f0: c74a 54bd ea38 e93d 3cdf 30bd 6b62 dbbd
00000300: df83 1b3d e727 17bd 870d 69bb abec 9d3a
00000310: 876d b83d ba4c 8bbd cd3e ee3d b68f c03d
00000320: 9825 a23b cd52 e43c f9cf 4cbc f9c1 7f3d
00000330: 9f9a 54bd 40e6 50bd 8728 bcbd 3f68 2d3d
00000340: 6b8f f6bd 7b3b 83bd 4a8f 9d3d 032f 2d3d
00000350: d79c e13c 2ce0 003c 3eff 9f3d 866d c33a
00000360: eaf6 c63c 69ba f63d e6bd 5f3d ab49 dabd
00000370: 0f11 01be a1e9 fc3d 1657 6a3d ca6b c5bc
00000380: 1705 edbd b262 6c3d dbdd db3c e348 3c3d
00000390: d6e4 aa3d 68ba ccbc 0529 dd3d eb3e 35bd
000003a0: 9a3a 31bc cc25 ac3a ef2a e53c 5c63 66bd
000003b0: 7bd4 edbd 8808 8b3d a2b5 f9bd e97b bd3d
000003c0: 4c28 f83d f2f3 6d3d 5cbc 2a3d 6d6c 403d
000003d0: 7826 67bd 3934 033d 3a31 86bd 95b8 e7bd
000003e0: b16b cf3d 5b96 f3bd 8879 d23a dfc9 85bc
000003f0: c48a 1e3c 242c f4bd 5044 d9bd b899 513c
